…
    "text": "Save and Load the Fine-tuned Model\n\nWe will save the LoRA adapters of the fine-tuned model in a local directory.\nAfter that, we load the LoRA adapters and combine them with the baseline model.\nYou can notice that the fine-tuned model has several LoRA adapters in it.\n\n\nsave_directory = 'dpo_model'\n\n\ntrainer.model.save_pretrained(save_directory=save_directory)\n\n\nfrom peft import PeftModel\n\nfinetuned_model = PeftModel.from_pretrained(model, save_directory)\n\n\nfinetuned_model\n\nPeftModelForCausalLM(\n  (base_model): LoraModel(\n    (model): LlamaForCausalLM(\n      (model): LlamaModel(\n        (embed_tokens): Embedding(49152, 960, padding_idx=2)\n        (layers): ModuleList(\n          (0-31): 32 x LlamaDecoderLayer(\n            (self_attn): LlamaSdpaAttention(\n              (q_proj): lora.Linear(\n                (base_layer): Linear(in_features=960, out_features=960, bias=False)\n                (lora_dropout): ModuleDict(\n                  (default): Dropout(p=0.05, inplace=False)\n                )\n                (lora_A): ModuleDict(\n                  (default): Linear(in_features=960, out_features=16, bias=False)\n                )\n                (lora_B): ModuleDict(\n                  (default): Linear(in_features=16, out_features=960, bias=False)\n                )\n                (lora_embedding_A): ParameterDict()\n                (lora_embedding_B): ParameterDict()\n                (lora_magnitude_vector): ModuleDict()\n              )\n              (k_proj): Linear(in_features=960, out_features=320, bias=False)\n              (v_proj): lora.Linear(\n                (base_layer): Linear(in_features=960, out_features=320, bias=False)\n                (lora_dropout): ModuleDict(\n                  (default): Dropout(p=0.05, inplace=False)\n                )\n                (lora_A): ModuleDict(\n                  (default): Linear(in_features=960, out_features=16, bias=False)\n                )\n                (lora_B): ModuleDict(\n                  (default): Linear(in_features=16, out_features=320, bias=False)\n                )\n                (lora_embedding_A): ParameterDict()\n                (lora_embedding_B): ParameterDict()\n                (lora_magnitude_vector): ModuleDict()\n              )\n              (o_proj): Linear(in_features=960, out_features=960, bias=False)\n              (rotary_emb): LlamaRotaryEmbedding()\n            )\n            (mlp): LlamaMLP(\n              (gate_proj): Linear(in_features=960, out_features=2560, bias=False)\n              (up_proj): Linear(in_features=960, out_features=2560, bias=False)\n              (down_proj): Linear(in_features=2560, out_features=960, bias=False)\n              (act_fn): SiLU()\n            )\n            (input_layernorm): LlamaRMSNorm((960,), eps=1e-05)\n            (post_attention_layernorm): LlamaRMSNorm((960,), eps=1e-05)\n          )\n        )\n        (norm): LlamaRMSNorm((960,), eps=1e-05)\n        (rotary_emb): LlamaRotaryEmbedding()\n      )\n      (lm_head): Linear(in_features=960, out_features=49152, bias=False)\n    )\n  )\n)"
  },
  {
    "objectID": "posts/preference_alignment.html#generate-responses-from-fine-tuned-model",
    "href": "posts/preference_alignment.html#generate-responses-from-fine-tuned-model",
    "title": "Preference Alignment using DPO",
    "section": "Generate Responses from Fine-tuned Model",
    "text": "Generate Responses from Fin
…
