…
 = model.to(device)\n\n\ntrain_data[0][0].shape\n\ntorch.Size([1, 28, 28])\n\n\n\ntrain_data[0][0].unsqueeze(0).shape\n\ntorch.Size([1, 1, 28, 28])\n\n\n\nmodel.forward(train_data[0][0].unsqueeze(0).to(device)).shape\n\ntorch.Size([1, 1, 28, 28])\n\n\n\nsummary(model, input_size=(1, 1, 28, 28))\n\n==========================================================================================\nLayer (type:depth-idx)                   Output Shape              Param #\n==========================================================================================\nAutoEncoder                              [1, 1, 28, 28]            --\n├─Sequential: 1-1                        [1, 2]                    --\n│    └─Conv2d: 2-1                       [1, 64, 14, 14]           640\n│    └─ReLU: 2-2                         [1, 64, 14, 14]           --\n│    └─Conv2d: 2-3                       [1, 64, 7, 7]             36,928\n│    └─ReLU: 2-4                         [1, 64, 7, 7]             --\n│    └─Conv2d: 2-5                       [1, 64, 4, 4]             36,928\n│    └─ReLU: 2-6                         [1, 64, 4, 4]             --\n│    └─Flatten: 2-7                      [1, 1024]                 --\n│    └─Linear: 2-8                       [1, 512]                  524,800\n│    └─ReLU: 2-9                         [1, 512]                  --\n│    └─Linear: 2-10                      [1, 128]                  65,664\n│    └─ReLU: 2-11                        [1, 128]                  --\n│    └─Linear: 2-12                      [1, 2]                    258\n├─Sequential: 1-2                        [1, 1, 32, 32]            --\n│    └─Linear: 2-13                      [1, 128]                  384\n│    └─ReLU: 2-14                        [1, 128]                  --\n│    └─Linear: 2-15                      [1, 512]                  66,048\n│    └─ReLU: 2-16                        [1, 512]                  --\n│    └─Linear: 2-17                      [1, 1024]                 525,312\n│    └─Unflatten: 2-18                   [1, 64, 4, 4]             --\n│    └─ConvTranspose2d: 2-19             [1, 64, 8, 8]             36,928\n│    └─ReLU: 2-20                        [1, 64, 8, 8]             --\n│    └─ConvTranspose2d: 2-21             [1, 64, 16, 16]           36,928\n│    └─ReLU: 2-22                        [1, 64, 16, 16]           --\n│    └─ConvTranspose2d: 2-23             [1, 1, 32, 32]            577\n│    └─Sigmoid: 2-24                     [1, 1, 32, 32]            --\n==========================================================================================\nTotal params: 1,331,395\nTrainable params: 1,331,395\nNon-trainable params: 0\nTotal mult-adds (M): 16.12\n==========================================================================================\nInput size (MB): 0.00\nForward/backward pass size (MB): 0.32\nParams size (MB): 5.33\nEstimated Total Size 
…
),\n        nn.Sigmoid()\n    )\n\n  def forward(self, x):\n    x = self.encoder(x)\n    x = self.decoder(x)\n    x = nn.functional.interpolate(x, size=(28, 28), mode='bilinear', align_corners=False)\n    return x\n\n\nmodel_1 = AutoEncoder_1()\n\n\nsummary(model_1, input_size = (1, 1, 28, 28))\n\n==========================================================================================\nLayer (type:depth-idx)                   Output Shape              Param #\n==========================================================================================\nAutoEncoder_1                            [1, 1, 28, 28]            --\n├─Sequential: 1-1                        [1, 3]                    --\n│    └─Conv2d: 2-1                       [1, 64, 14, 14]           640\n│    └─ReLU: 2-2                         [1, 64, 14, 14]           --\n│    └─Conv2d: 2-3                       [1, 64, 7, 7]             36,928\n│    └─ReLU: 2-4                         [1, 64, 7, 7]             --\n│    └─Conv2d: 2-5                       [1, 64, 4, 4]             36,928\n│    └─ReLU: 2-6                         [1, 64, 4, 4]             --\n│    └─Flatten: 2-7                      [1, 1024]                 --\n│    └─Linear: 2-8                       [1, 512]                  524,800\n│    └─ReLU: 2-9                         [1, 512]                  --\n│    └─Linear: 2-10                      [1, 128]                  65,664\n│    └─ReLU: 2-11                        [1, 128]                  --\n│    └─Linear: 2-12                      [1, 3]                    387\n├─Sequential: 1-2                        [1, 1, 32, 32]            --\n│    └─Linear: 2-13                      [1, 128]                  512\n│    └─ReLU: 2-14                        [1, 128]                  --\n│    └─Linear: 2-15                      [1, 512]                  66,048\n│    └─ReLU: 2-16                        [1, 512]                  --\n│    └─Linear: 2-17                      [1, 1024]                 525,312\n│    └─ReLU: 2-18                        [1, 1024]                 --\n│    └─Unflatten: 2-19                   [1, 64, 4, 4]             --\n│    └─ConvTranspose2d: 2-20             [1, 64, 8, 8]             36,928\n│    └─ReLU: 2-21                        [1, 64, 8, 8]             --\n│    └─ConvTranspose2d: 2-22             [1, 64, 16, 16]           36,928\n│    └─ReLU: 2-23                        [1, 64, 16, 16]           --\n│    └─ConvTranspose2d: 2-24             [1, 1, 32, 32]            577\n│    └─Sigmoid: 2-25                     [1, 1, 32, 32]            --\n==========================================================================================\nTotal params: 1,331,652\nTrainable params: 1,331,652\nNon-trainable params: 0\nTotal mult-adds (M): 16.12\n==========================================================================================\nInput size (MB): 0.00\nForward/backward pass size (MB): 0.32\nParams size (MB): 5.33\nEstimated Total Size 
…
